…
snapshot_prefix: "snapshot/train"
test_initialization: false
average_loss: 20
iter_size: 1
I1219 17:28:56.210994 21123 solver.cpp:81] Creating training net from train_net file: train.prototxt
I1219 17:28:56.212050 21123 net.cpp:58] Initializing net from parameters: 
state {
  phase: TRAIN
}
layer {
  name: "data"
  type: "Python"
  top: "data"
  top: "label"
  python_param {
    module: "voc_layers"
    layer: "SBDDSegDataLayer"
    param_str: "{\'sbdd_dir\': \'../data/sbdd/dataset\', \'seed\': 1337, \'split\': \'train\', \'mean\': (104.00699, 116.66877, 122.67892)}"
  }
}
layer {
  name: "conv1_1"
  type: "Convolution"
  bottom: "data"
  top: "conv1_1"
  param {
    lr_mult: 1
    decay_mult: 1
  }
  param {
    lr_mult: 2
    decay_mult: 0
  }
  convolution_param {
    num_output: 64
    pad: 100
    kernel_size: 3
    stride: 1
  }
}
layer {
  name: "relu1_1"
  type: "ReLU"
  bottom: "conv1_1"
  top: "conv1_1"
}
layer {
  name: "conv1_2"
  type: "Convolution"
  bottom: "conv1_1"
  top: "conv1_2"
  param {
    lr_mult: 1
    decay_mult: 1
  }
  param {
    lr_mult: 2
    decay_mult: 0
  }
  convolution_param {
    num_output: 64
    pad: 1
    kernel_size: 3
    stride: 1
  }
}
layer {
  name: "relu1_2"
  type: "ReLU"
  bottom: "conv1_2"
  top: "conv1_2"
}
layer {
  name: "pool1"
  type: "Pooling"
  bottom: "conv1_2"
  top: "pool1"
  pooling_param {
    pool: MAX
    kernel_size: 2
    stride: 2
  }
}
layer {
  name: "conv2_1"
  type: "Convolution"
  bottom: "pool1"
  top: "conv2_1"
  param {
    lr_mult: 1
    decay_mult: 1
  }
  param {
    lr_mult: 2
    decay_mult: 0
  }
  convolution_param {
    num_output: 128
    pad: 1
    kernel_size: 3
    stride: 1
  }
}
layer {
  name: "relu2_1"
  type: "ReLU"
  bottom: "conv2_1"
  top: "conv2_1"
}
layer {
  name: "conv2_2"
  type: "Convolution"
  bottom: "conv2_1"
  top: "conv2_2"
  param {
    lr_mult: 1
    decay_mult: 1
  }
  param {
    lr_mult: 2
    decay_mult: 0
  }
  convolution_param {
    num_output: 128
    pad: 1
    kernel_size: 3
    stride: 1
  }
}
layer {
  name: "relu2_2"
  type: "ReLU"
  bottom: "conv2_2"
  top: "conv2_2"
}
layer {
  name: "pool2"
  type: "Pooling"
  bottom: "conv2_2"
  top: "pool2"
  pooling_param {
    pool: MAX
    kernel_size: 2
    stride: 2
  }
}
layer {
  name: "conv3_1"
  type: "Convolution"
  bottom: "pool2"
  top: "conv3_1"
  param {
    lr_mult: 1
    decay_mult: 1
  }
  param {
    lr_mult: 2
    decay_mult: 0
  }
  convolution_param {
    num_output: 256
    pad: 1
    kernel_size: 3
    stride: 1
  }
}
layer {
  name: "relu3_1"
  type: "ReLU"
  bottom: "conv3_1"
  top: "conv3_1"
}
layer {
  name: "conv3_2"
  type: "Convolution"
  bottom: "conv3_1"
  top: "conv3_2"
  param {
    lr_mult: 1
    decay_mult: 1
  }
  param {
    lr_mult: 2
    decay_mult: 0
  }
  convolution_param {
    num_output: 256
    pad: 1
    kernel_size: 3
    stride: 1
  }
}
layer {
  name: "relu3_2"
  type: "ReLU"
  bottom: "conv3_2"
  top: "conv3_2"
}
layer {
  name: "conv3_3"
  type: "Convolution"
  bottom: "conv3_2"
  top: "conv3_3"
  param {
    lr_mult: 1
    decay_mult: 1
  }
  param {
    lr_mult: 2
    decay_mult: 0
  }
  convolution_param {
    num_output: 256
    pad: 1
    kernel_size: 3
    stride: 1
  }
}
layer {
  name: "relu3_3"
  type: "ReLU"
  bottom: "conv3_3"
  top: "conv3_3"
}
layer {
  name: "pool3"
  type: "Pooling"
  bottom: "conv3_3"
  top: "pool3"
  pooling_param {
    pool: MAX
    kernel_size: 2
    stride: 2
  }
}
layer {
  name: "conv4_1"
  type: "Convolution"
  bottom: "pool3"
  top: "conv4_1"
  param {
    lr_mult: 1
    decay_mult: 1
  }
  param {
    lr_mult: 2
    decay_mult: 0
  }
  convolution_param {
    num_output: 512
    pad: 1
    kernel_size: 3
    stride: 1
  }
}
layer {
  name: "relu4_1"
  type: "ReLU"
  bottom: "conv4_1"
  top: "conv4_1"
}
layer {
  name: "conv4_2"
  type: "Convolution"
  bottom: "conv4_1"
  top: "conv4_2"
  param {
    lr_mult: 1
    decay_mult: 1
  }
  param {
    lr_mult: 2
    decay_mult: 0
  }
  convolution_param {
    num_output: 512
    pad: 1
    kernel_size: 3
    stride: 1
  }
}
layer {
  name: "relu4_2"
  type: "ReLU"
  bottom: "conv4_2"
  top: "conv4_2"
}
layer {
  name: "conv4_3"
  type: "Convolution"
  bottom: "conv4_2"
  top: "conv4_3"
  param {
    lr_mult: 1
    decay_mult: 1
  }
  param {
    lr_mult: 2
    decay_mult: 0
  }
  convolution_param {
    num_output: 512
    pad: 1
    kernel_size: 3
    stride: 1
  }
}
layer {
  name: "relu4_3"
  type: "ReLU"
  bottom: "conv4_3"
  top: "conv4_3"
}
layer {
  name: "pool4"
  type: "Pooling"
  bottom: "conv4_3"
  top: "pool4"
  pooling_param {
    pool: MAX
    kernel_size: 2
    stride: 2
  }
}
layer {
  name: "conv5_1"
  type: "Convolution"
  bottom: "pool4"
  top: "conv5_1"
  param {
    lr_mult: 1
    decay_mult: 1
  }
  param {
    lr_mult: 2
    decay_mult: 0
  }
  convolution_param {
    num_output: 512
    pad: 1
    kernel_size: 3
    stride: 1
  }
}
layer {
  name: "relu5_1"
  type: "ReLU"
  bottom: "conv5_1"
  top: "conv5_1"
}
layer {
  name: "conv5_2"
  type: "Convolution"
  bottom: "conv5_1"
  top: "conv5_2"
  param {
    lr_mult: 1
    decay_mult: 1
  }
  param {
    lr_mult: 2
    decay_mult: 0
  }
  convolution_param {
    num_output: 512
    pad: 1
    kernel_size: 3
    stride: 1
  }
}
layer {
  name: "relu5_2"
  type: "ReLU"
  bottom: "conv5_2"
  top: "conv5_2"
}
layer {
  name: "conv5_3"
  type: "Convolution"
  bottom: "conv5_2"
  top: "conv5_3"
  param {
    lr_mult: 1
    decay_mult: 1
  }
  param {
    lr_mult: 2
    decay_mult: 0
  }
  convolution_param {
    num_output: 512
    pad: 1
    kernel_size: 3
    stride: 1
  }
}
layer {
  name: "relu5_3"
  type: "ReLU"
  bottom: "conv5_3"
  top: "conv5_3"
}
layer {
  name: "pool5"
  type: "Pooling"
  bottom: "conv5_3"
  top: "pool5"
  pooling_param {
    pool: MAX
    kernel_size: 2
    stride: 2
  }
}
layer {
  name: "fc6"
  type: "Convolution"
  bottom: "pool5"
  top: "fc6"
  param {
    lr_mult: 1
    decay_mult: 1
  }
  param {
    lr_mult: 2
    decay_mult: 0
  }
  convolution_param {
    num_output: 4096
    pad: 0
    kernel_size: 7
    stride: 1
  }
}
layer {
  name: "relu6"
  type: "ReLU"
  bottom: "fc6"
  top: "fc6"
}
layer {
  name: "drop6"
  type: "Dropout"
  bottom: "fc6"
  top: "fc6"
  dropout_param {
    dropout_ratio: 0.5
  }
}
layer {
  name: "fc7"
  type: "Convolution"
  bottom: "fc6"
  top: "fc7"
  param {
    lr_mult: 1
    decay_mult: 1
  }
  param {
    lr_mult: 2
    decay_mult: 0
  }
  convolution_param {
    num_output: 4096
    pad: 0
    kernel_size: 1
    stride: 1
  }
}
layer {
  name: "relu7"
  type: "ReLU"
  bottom: "fc7"
  top: "fc7"
}
layer {
  name: "drop7"
  type: "Dropout"
  bottom: "fc7"
  top: "fc7"
  dropout_param {
    dropout_ratio: 0.5
  }
}
layer {
  name: "score_fr"
  type: "Convolution"
  bottom: "fc7"
  top: "score_fr"
  param {
    lr_mult: 1
    decay_mult: 1
  }
  param {
    lr_mult: 2
    decay_mult: 0
  }
  convolution_param {
    num_output: 21
    pad: 0
    kernel_size: 1
  }
}
layer {
  name: "upscore"
  type: "Deconvolution"
  bottom: "score_fr"
  top: "upscore"
  param {
    lr_mult: 0
  }
  convolution_param {
    num_output: 21
    bias_term: false
    kernel_size: 64
    stride: 32
  }
}
layer {
  name: "score"
  type: "Crop"
  bottom: "upscore"
  bottom: "data"
  top: "score"
  crop_param {
    axis: 2
    offset: 19
  }
}
layer {
  name: "loss"
  type: "SoftmaxWithLoss"
  bottom: "score"
  bottom: "label"
  top: "loss"
  loss_param {
    ignore_label: 255
    normalize: false
  }
}
I1219 17:28:56.212290 21123 layer_factory.hpp:77] Creating layer data
I1219 17:28:56.212631 21123 net.cpp:100] Creating Layer data
I1219 17:28:56.212648 21123 net.cpp:408] data -> data
I1219 17:28:56.212668 21123 net.cpp:408] data -> label
I1219 17:28:56.278810 21123 net.cpp:150] Setting up data
I1219 17:28:56.278858 21123 net.cpp:157] Top shape: 1 3 500 330 (495000)
I1219 17:28:56.278865 21123 net.cpp:157] Top shape: 1 1 500 330 (165000)
I1219 17:28:56.278869 21123 net.cpp:165] Memory required for data: 2640000
I1219 17:28:56.278879 21123 layer_factory.hpp:77] Creating layer data_data_0_split
I1219 17:28:56.278903 21123 net.cpp:100] Creating Layer data_data_0_split
I1219 17:28:56.278915 21123 net.cpp:434] data_data_0_split <- data
I1219 17:28:56.278925 21123 net.cpp:408] data_data_0_split -> data_data_0_split_0
I1219 17:28:56.278939 21123 net.cpp:408] data_data_0_split -> data_data_0_split_1
I1219 17:28:56.278985 21123 net.cpp:150] Setting up data_data_0_split
I1219 17:28:56.279000 21123 net.cpp:157] Top shape: 1 3 500 330 (495000)
I1219 17:28:56.279006 21123 net.cpp:157] Top shape: 1 3 500 330 (495000)
I1219 17:28:56.279014 21123 net.cpp:165] Memory required for data: 6600000
I1219 17:28:56.279023 21123 layer_factory.hpp:77] Creating layer conv1_1
I1219 17:28:56.279052 21123 net.cpp:100] Creating Layer conv1_1
I1219 17:28:56.279065 21123 net.cpp:434] conv1_1 <- data_data_0_split_0
I1219 17:28:56.279079 21123 net.cpp:408] conv1_1 -> conv1_1
I1219 17:28:57.240423 21123 net.cpp:150] Setting up conv1_1
I1219 17:28:57.240463 21123 net.cpp:157] Top shape: 1 64 698 528 (23586816)
I1219 17:28:57.240473 21123 net.cpp:165] Memory required for data: 100947264
I1219 17:28:57.240494 21123 layer_factory.hpp:77] Creating layer relu1_1
I1219 17:28:57.240509 21123 net.cpp:100] Creating Layer relu1_1
I1219 17:28:57.240514 21123 net.cpp:434] relu1_1 <- conv1_1
I1219 17:28:57.240522 21123 net.cpp:395] relu1_1 -> conv1_1 (in-place)
I1219 17:28:57.240890 21123 net.cpp:150] Setting up relu1_1
I1219 17:28:57.240906 21123 net.cpp:157] Top shape: 1 64 698 528 (23586816)
I1219 17:28:57.240909 21123 net.cpp:165] Memory required for data: 195294528
I1219 17:28:57.240914 21123 layer_factory.hpp:77] Creating layer conv1_2
I1219 17:28:57.240931 21123 net.cpp:100] Creating Layer conv1_2
I1219 17:28:57.240936 21123 net.cpp:434] conv1_2 <- conv1_1
I1219 17:28:57.240942 21123 net.cpp:408] conv1_2 -> conv1_2
I1219 17:28:57.245095 21123 net.cpp:150] Setting up conv1_2
I1219 17:28:57.245111 21123 net.cpp:157] Top shape: 1 64 698 528 (23586816)
I1219 17:28:57.245116 21123 net.cpp:165] Memory required for data: 289641792
I1219 17:28:57.245131 21123 layer_factory.hpp:77] Creating layer relu1_2
I1219 17:28:57.245141 21123 net.cpp:100] Creating Layer relu1_2
I1219 17:28:57.245144 21123 net.cpp:434] relu1_2 <- conv1_2
I1219 17:28:57.245151 21123 net.cpp:395] relu1_2 -> conv1_2 (in-place)
I1219 17:28:57.245504 21123 net.cpp:150] Setting up relu1_2
I1219 17:28:57.245522 21123 net.cpp:157] Top shape: 1 64 698 528 (23586816)
I1219 17:28:57.245525 21123 net.cpp:165] Memory required for data: 383989056
I1219 17:28:57.245530 21123 layer_factory.hpp:77] Creating layer pool1
I1219 17:28:57.245539 21123 net.cpp:100] Creating Layer pool1
I1219 17:28:57.245544 21123 net.cpp:434] pool1 <- conv1_2
I1219 17:28:57.245551 21123 net.cpp:408] pool1 -> pool1
I1219 17:28:57.245611 21123 net.cpp:150] Setting up pool1
I1219 17:28:57.245623 21123 net.cpp:157] Top shape: 1 64 349 264 (5896704)
I1219 17:28:57.245627 21123 net.cpp:165] Memory required for data: 407575872
I1219 17:28:57.245632 21123 layer_factory.hpp:77] Creating layer conv2_1
I1219 17:28:57.245641 21123 net.cpp:100] Creating Layer conv2_1
I1219 17:28:57.245646 21123 net.cpp:434] conv2_1 <- pool1
I1219 17:28:57.245652 21123 net.cpp:408] conv2_1 -> conv2_1
I1219 17:28:57.249836 21123 net.cpp:150] Setting up conv2_1
I1219 17:28:57.249855 21123 net.cpp:157] Top shape: 1 128 349 264 (11793408)
I1219 17:28:57.249861 21123 net.cpp:165] Memory required for data: 454749504
I1219 17:28:57.249874 21123 layer_factory.hpp:77] Creating layer relu2_1
I1219 17:28:57.249883 21123 net.cpp:100] Creating Layer relu2_1
I1219 17:28:57.249888 21123 net.cpp:434] relu2_1 <- conv2_1
I1219 17:28:57.249897 21123 net.cpp:395] relu2_1 -> conv2_1 (in-place)
I1219 17:28:57.250886 21123 net.cpp:150] Setting up relu2_1
I1219 17:28:57.250905 21123 net.cpp:157] Top shape: 1 128 349 264 (11793408)
I1219 17:28:57.250912 21123 net.cpp:165] Memory required for data: 501923136
I1219 17:28:57.250921 21123 layer_factory.hpp:77] Creating layer conv2_2
I1219 17:28:57.250937 21123 net.cpp:100] Creating Layer conv2_2
I1219 17:28:57.250946 21123 net.cpp:434] conv2_2 <- conv2_1
I1219 17:28:57.250962 21123 net.cpp:408] conv2_2 -> conv2_2
I1219 17:28:57.256469 21123 net.cpp:150] Setting up conv2_2
I1219 17:28:57.256489 21123 net.cpp:157] Top shape: 1 128 349 264 (11793408)
I1219 17:28:57.256494 21123 net.cpp:165] Memory required for data: 549096768
I1219 17:28:57.256506 21123 layer_factory.hpp:77] Creating layer relu2_2
I1219 17:28:57.256515 21123 net.cpp:100] Creating Layer relu2_2
I1219 17:28:57.256520 21123 net.cpp:434] relu2_2 <- conv2_2
I1219 17:28:57.256525 21123 net.cpp:395] relu2_2 -> conv2_2 (in-place)
I1219 17:28:57.257520 21123 net.cpp:150] Setting up relu2_2
I1219 17:28:57.257537 21123 net.cpp:157] Top shape: 1 128 349 264 (11793408)
I1219 17:28:57.257541 21123 net.cpp:165] Memory required for data: 596270400
I1219 17:28:57.257546 21123 layer_factory.hpp:77] Creating layer pool2
I1219 17:28:57.257557 21123 net.cpp:100] Creating Layer pool2
I1219 17:28:57.257562 21123 net.cpp:434] pool2 <- conv2_2
I1219 17:28:57.257570 21123 net.cpp:408] pool2 -> pool2
I1219 17:28:57.257627 21123 net.cpp:150] Setting up pool2
I1219 17:28:57.257638 21123 net.cpp:157] Top shape: 1 128 175 132 (2956800)
I1219 17:28:57.257642 21123 net.cpp:165] Memory required for data: 608097600
I1219 17:28:57.257647 21123 layer_factory.hpp:77] Creating layer conv3_1
I1219 17:28:57.257658 21123 net.cpp:100] Creating Layer conv3_1
I1219 17:28:57.257666 21123 net.cpp:434] conv3_1 <- pool2
I1219 17:28:57.257675 21123 net.cpp:408] conv3_1 -> conv3_1
I1219 17:28:57.262109 21123 net.cpp:150] Setting up conv3_1
I1219 17:28:57.262125 21123 net.cpp:157] Top shape: 1 256 175 132 (5913600)
I1219 17:28:57.262130 21123 net.cpp:165] Memory required for data: 631752000
I1219 17:28:57.262148 21123 layer_factory.hpp:77] Creating layer relu3_1
I1219 17:28:57.262157 21123 net.cpp:100] Creating Layer relu3_1
I1219 17:28:57.262161 21123 net.cpp:434] relu3_1 <- conv3_1
I1219 17:28:57.262167 21123 net.cpp:395] relu3_1 -> conv3_1 (in-place)
I1219 17:28:57.262984 21123 net.cpp:150] Setting up relu3_1
I1219 17:28:57.263005 21123 net.cpp:157] Top shape: 1 256 175 132 (5913600)
I1219 17:28:57.263010 21123 net.cpp:165] Memory required for data: 655406400
I1219 17:28:57.263015 21123 layer_factory.hpp:77] Creating layer conv3_2
I1219 17:28:57.263023 21123 net.cpp:100] Creating Layer conv3_2
I1219 17:28:57.263027 21123 net.cpp:434] conv3_2 <- conv3_1
I1219 17:28:57.263036 21123 net.cpp:408] conv3_2 -> conv3_2
I1219 17:28:57.267103 21123 net.cpp:150] Setting up conv3_2
I1219 17:28:57.267122 21123 net.cpp:157] Top shape: 1 256 175 132 (5913600)
I1219 17:28:57.267125 21123 net.cpp:165] Memory required for data: 679060800
I1219 17:28:57.267140 21123 layer_factory.hpp:77] Creating layer relu3_2
I1219 17:28:57.267148 21123 net.cpp:100] Creating Layer relu3_2
I1219 17:28:57.267153 21123 net.cpp:434] relu3_2 <- conv3_2
I1219 17:28:57.267160 21123 net.cpp:395] relu3_2 -> conv3_2 (in-place)
I1219 17:28:57.268188 21123 net.cpp:150] Setting up relu3_2
I1219 17:28:57.268203 21123 net.cpp:157] Top shape: 1 256 175 132 (5913600)
I1219 17:28:57.268208 21123 net.cpp:165] Memory required for data: 702715200
I1219 17:28:57.268211 21123 layer_factory.hpp:77] Creating layer conv3_3
I1219 17:28:57.268231 21123 net.cpp:100] Creating Layer conv3_3
I1219 17:28:57.268237 21123 net.cpp:434] conv3_3 <- conv3_2
I1219 17:28:57.268244 21123 net.cpp:408] conv3_3 -> conv3_3
I1219 17:28:57.272670 21123 net.cpp:150] Setting up conv3_3
I1219 17:28:57.272689 21123 net.cpp:157] Top shape: 1 256 175 132 (5913600)
I1219 17:28:57.272693 21123 net.cpp:165] Memory required for data: 726369600
I1219 17:28:57.272702 21123 layer_factory.hpp:77] Creating layer relu3_3
I1219 17:28:57.272711 21123 net.cpp:100] Creating Layer relu3_3
I1219 17:28:57.272716 21123 net.cpp:434] relu3_3 <- conv3_3
I1219 17:28:57.272724 21123 net.cpp:395] relu3_3 -> conv3_3 (in-place)
I1219 17:28:57.273742 21123 net.cpp:150] Setting up relu3_3
I1219 17:28:57.273758 21123 net.cpp:157] Top shape: 1 256 175 132 (5913600)
I1219 17:28:57.273763 21123 net.cpp:165] Memory required for data: 750024000
I1219 17:28:57.273767 21123 layer_factory.hpp:77] Creating layer pool3
I1219 17:28:57.273777 21123 net.cpp:100] Creating Layer pool3
I1219 17:28:57.273780 21123 net.cpp:434] pool3 <- conv3_3
I1219 17:28:57.273790 21123 net.cpp:408] pool3 -> pool3
I1219 17:28:57.273851 21123 net.cpp:150] Setting up pool3
I1219 17:28:57.273864 21123 net.cpp:157] Top shape: 1 256 88 66 (1486848)
I1219 17:28:57.273867 21123 net.cpp:165] Memory required for data: 755971392
I1219 17:28:57.273872 21123 layer_factory.hpp:77] Creating layer conv4_1
I1219 17:28:57.273885 21123 net.cpp:100] Creating Layer conv4_1
I1219 17:28:57.273892 21123 net.cpp:434] conv4_1 <- pool3
I1219 17:28:57.273900 21123 net.cpp:408] conv4_1 -> conv4_1
I1219 17:28:57.282061 21123 net.cpp:150] Setting up conv4_1
I1219 17:28:57.282090 21123 net.cpp:157] Top shape: 1 512 88 66 (2973696)
I1219 17:28:57.282094 21123 net.cpp:165] Memory required for data: 767866176
I1219 17:28:57.282111 21123 layer_factory.hpp:77] Creating layer relu4_1
I1219 17:28:57.282122 21123 net.cpp:100] Creating Layer relu4_1
I1219 17:28:57.282129 21123 net.cpp:434] relu4_1 <- conv4_1
I1219 17:28:57.282136 21123 net.cpp:395] relu4_1 -> conv4_1 (in-place)
I1219 17:28:57.283432 21123 net.cpp:150] Setting up relu4_1
I1219 17:28:57.283449 21123 net.cpp:157] Top shape: 1 512 88 66 (2973696)
I1219 17:28:57.283454 21123 net.cpp:165] Memory required for data: 779760960
I1219 17:28:57.283463 21123 layer_factory.hpp:77] Creating layer conv4_2
I1219 17:28:57.283473 21123 net.cpp:100] Creating Layer conv4_2
I1219 17:28:57.283478 21123 net.cpp:434] conv4_2 <- conv4_1
I1219 17:28:57.283488 21123 net.cpp:408] conv4_2 -> conv4_2
I1219 17:28:57.293567 21123 net.cpp:150] Setting up conv4_2
I1219 17:28:57.293606 21123 net.cpp:157] Top shape: 1 512 88 66 (2973696)
I1219 17:28:57.293611 21123 net.cpp:165] Memory required for data: 791655744
I1219 17:28:57.293632 21123 layer_factory.hpp:77] Creating layer relu4_2
I1219 17:28:57.293648 21123 net.cpp:100] Creating Layer relu4_2
I1219 17:28:57.293654 21123 net.cpp:434] relu4_2 <- conv4_2
I1219 17:28:57.293668 21123 net.cpp:395] relu4_2 -> conv4_2 (in-place)
I1219 17:28:57.296250 21123 net.cpp:150] Setting up relu4_2
I1219 17:28:57.296265 21123 net.cpp:157] Top shape: 1 512 88 66 (2973696)
I1219 17:28:57.296270 21123 net.cpp:165] Memory required for data: 803550528
I1219 17:28:57.296274 21123 layer_factory.hpp:77] Creating layer conv4_3
I1219 17:28:57.296291 21123 net.cpp:100] Creating Layer conv4_3
I1219 17:28:57.296296 21123 net.cpp:434] conv4_3 <- conv4_2
I1219 17:28:57.296306 21123 net.cpp:408] conv4_3 -> conv4_3
I1219 17:28:57.305871 21123 net.cpp:150] Setting up conv4_3
I1219 17:28:57.305907 21123 net.cpp:157] Top shape: 1 512 88 66 (2973696)
I1219 17:28:57.305912 21123 net.cpp:165] Memory required for data: 815445312
I1219 17:28:57.305923 21123 layer_factory.hpp:77] Creating layer relu4_3
I1219 17:28:57.305938 21123 net.cpp:100] Creating Layer relu4_3
I1219 17:28:57.305943 21123 net.cpp:434] relu4_3 <- conv4_3
I1219 17:28:57.305953 21123 net.cpp:395] relu4_3 -> conv4_3 (in-place)
I1219 17:28:57.308367 21123 net.cpp:150] Setting up relu4_3
I1219 17:28:57.308383 21123 net.cpp:157] Top shape: 1 512 88 66 (2973696)
I1219 17:28:57.308387 21123 net.cpp:165] Memory required for data: 827340096
I1219 17:28:57.308393 21123 layer_factory.hpp:77] Creating layer pool4
I1219 17:28:57.308403 21123 net.cpp:100] Creating Layer pool4
I1219 17:28:57.308408 21123 net.cpp:434] pool4 <- conv4_3
I1219 17:28:57.308418 21123 net.cpp:408] pool4 -> pool4
I1219 17:28:57.308481 21123 net.cpp:150] Setting up pool4
I1219 17:28:57.308493 21123 net.cpp:157] Top shape: 1 512 44 33 (743424)
I1219 17:28:57.308497 21123 net.cpp:165] Memory required for data: 830313792
I1219 17:28:57.308501 21123 layer_factory.hpp:77] Creating layer conv5_1
I1219 17:28:57.308514 21123 net.cpp:100] Creating Layer conv5_1
I1219 17:28:57.308519 21123 net.cpp:434] conv5_1 <- pool4
I1219 17:28:57.308531 21123 net.cpp:408] conv5_1 -> conv5_1
I1219 17:28:57.318274 21123 net.cpp:150] Setting up conv5_1
I1219 17:28:57.318311 21123 net.cpp:157] Top shape: 1 512 44 33 (743424)
I1219 17:28:57.318317 21123 net.cpp:165] Memory required for data: 833287488
I1219 17:28:57.318328 21123 layer_factory.hpp:77] Creating layer relu5_1
I1219 17:28:57.318341 21123 net.cpp:100] Creating Layer relu5_1
I1219 17:28:57.318346 21123 net.cpp:434] relu5_1 <- conv5_1
I1219 17:28:57.318356 21123 net.cpp:395] relu5_1 -> conv5_1 (in-place)
I1219 17:28:57.319499 21123 net.cpp:150] Setting up relu5_1
I1219 17:28:57.319514 21123 net.cpp:157] Top shape: 1 512 44 33 (743424)
I1219 17:28:57.319519 21123 net.cpp:165] Memory required for data: 836261184
I1219 17:28:57.319524 21123 layer_factory.hpp:77] Creating layer conv5_2
I1219 17:28:57.319537 21123 net.cpp:100] Creating Layer conv5_2
I1219 17:28:57.319542 21123 net.cpp:434] conv5_2 <- conv5_1
I1219 17:28:57.319552 21123 net.cpp:408] conv5_2 -> conv5_2
I1219 17:28:57.328109 21123 net.cpp:150] Setting up conv5_2
I1219 17:28:57.328140 21123 net.cpp:157] Top shape: 1 512 44 33 (743424)
I1219 17:28:57.328147 21123 net.cpp:165] Memory required for data: 839234880
I1219 17:28:57.328158 21123 layer_factory.hpp:77] Creating layer relu5_2
I1219 17:28:57.328171 21123 net.cpp:100] Creating Layer relu5_2
I1219 17:28:57.328177 21123 net.cpp:434] relu5_2 <- conv5_2
I1219 17:28:57.328186 21123 net.cpp:395] relu5_2 -> conv5_2 (in-place)
I1219 17:28:57.329337 21123 net.cpp:150] Setting up relu5_2
I1219 17:28:57.329352 21123 net.cpp:157] Top shape: 1 512 44 33 (743424)
I1219 17:28:57.329356 21123 net.cpp:165] Memory required for data: 842208576
I1219 17:28:57.329360 21123 layer_factory.hpp:77] Creating layer conv5_3
I1219 17:28:57.329377 21123 net.cpp:100] Creating Layer conv5_3
I1219 17:28:57.329382 21123 net.cpp:434] conv5_3 <- conv5_2
I1219 17:28:57.329391 21123 net.cpp:408] conv5_3 -> conv5_3
I1219 17:28:57.338165 21123 net.cpp:150] Setting up conv5_3
I1219 17:28:57.338210 21123 net.cpp:157] Top shape: 1 512 44 33 (743424)
I1219 17:28:57.338219 21123 net.cpp:165] Memory required for data: 845182272
I1219 17:28:57.338233 21123 layer_factory.hpp:77] Creating layer relu5_3
I1219 17:28:57.338248 21123 net.cpp:100] Creating Layer relu5_3
I1219 17:28:57.338254 21123 net.cpp:434] relu5_3 <- conv5_3
I1219 17:28:57.338266 21123 net.cpp:395] relu5_3 -> conv5_3 (in-place)
I1219 17:28:57.338686 21123 net.cpp:150] Setting up relu5_3
I1219 17:28:57.338703 21123 net.cpp:157] Top shape: 1 512 44 33 (743424)
I1219 17:28:57.338707 21123 net.cpp:165] Memory required for data: 848155968
I1219 17:28:57.338712 21123 layer_factory.hpp:77] Creating layer pool5
I1219 17:28:57.338731 21123 net.cpp:100] Creating Layer pool5
I1219 17:28:57.338740 21123 net.cpp:434] pool5 <- conv5_3
I1219 17:28:57.338757 21123 net.cpp:408] pool5 -> pool5
I1219 17:28:57.338841 21123 net.cpp:150] Setting up pool5
I1219 17:28:57.338860 21123 net.cpp:157] Top shape: 1 512 22 17 (191488)
I1219 17:28:57.338866 21123 net.cpp:165] Memory required for data: 848921920
I1219 17:28:57.338876 21123 layer_factory.hpp:77] Creating layer fc6
I1219 17:28:57.338904 21123 net.cpp:100] Creating Layer fc6
I1219 17:28:57.338915 21123 net.cpp:434] fc6 <- pool5
I1219 17:28:57.338932 21123 net.cpp:408] fc6 -> fc6
I1219 17:28:57.740352 21123 net.cpp:150] Setting up fc6
I1219 17:28:57.740394 21123 net.cpp:157] Top shape: 1 4096 16 11 (720896)
I1219 17:28:57.740402 21123 net.cpp:165] Memory required for data: 851805504
I1219 17:28:57.740423 21123 layer_factory.hpp:77] Creating layer relu6
I1219 17:28:57.740447 21123 net.cpp:100] Creating Layer relu6
I1219 17:28:57.740455 21123 net.cpp:434] relu6 <- fc6
I1219 17:28:57.740464 21123 net.cpp:395] relu6 -> fc6 (in-place)
I1219 17:28:57.741080 21123 net.cpp:150] Setting up relu6
I1219 17:28:57.741096 21123 net.cpp:157] Top shape: 1 4096 16 11 (720896)
I1219 17:28:57.741099 21123 net.cpp:165] Memory required for data: 854689088
I1219 17:28:57.741104 21123 layer_factory.hpp:77] Creating layer drop6
I1219 17:28:57.741122 21123 net.cpp:100] Creating Layer drop6
I1219 17:28:57.741127 21123 net.cpp:434] drop6 <- fc6
I1219 17:28:57.741134 21123 net.cpp:395] drop6 -> fc6 (in-place)
I1219 17:28:57.741178 21123 net.cpp:150] Setting up drop6
I1219 17:28:57.741190 21123 net.cpp:157] Top shape: 1 4096 16 11 (720896)
I1219 17:28:57.741194 21123 net.cpp:165] Memory required for data: 857572672
I1219 17:28:57.741199 21123 layer_factory.hpp:77] Creating layer fc7
I1219 17:28:57.741210 21123 net.cpp:100] Creating Layer fc7
I1219 17:28:57.741219 21123 net.cpp:434] fc7 <- fc6
I1219 17:28:57.741227 21123 net.cpp:408] fc7 -> fc7
I1219 17:28:57.795246 21123 net.cpp:150] Setting up fc7
I1219 17:28:57.795291 21123 net.cpp:157] Top shape: 1 4096 16 11 (720896)
I1219 17:28:57.795297 21123 net.cpp:165] Memory required for data: 860456256
I1219 17:28:57.795315 21123 layer_factory.hpp:77] Creating layer relu7
I1219 17:28:57.795330 21123 net.cpp:100] Creating Layer relu7
I1219 17:28:57.795336 21123 net.cpp:434] relu7 <- fc7
I1219 17:28:57.795347 21123 net.cpp:395] relu7 -> fc7 (in-place)
I1219 17:28:57.796916 21123 net.cpp:150] Setting up relu7
I1219 17:28:57.796932 21123 net.cpp:157] Top shape: 1 4096 16 11 (720896)
I1219 17:28:57.796936 21123 net.cpp:165] Memory required for data: 863339840
I1219 17:28:57.796941 21123 layer_factory.hpp:77] Creating layer drop7
I1219 17:28:57.796950 21123 net.cpp:100] Creating Layer drop7
I1219 17:28:57.796955 21123 net.cpp:434] drop7 <- fc7
I1219 17:28:57.796963 21123 net.cpp:395] drop7 -> fc7 (in-place)
I1219 17:28:57.797008 21123 net.cpp:150] Setting up drop7
I1219 17:28:57.797022 21123 net.cpp:157] Top shape: 1 4096 16 11 (720896)
I1219 17:28:57.797026 21123 net.cpp:165] Memory required for data: 866223424
I1219 17:28:57.797030 21123 layer_factory.hpp:77] Creating layer score_fr
I1219 17:28:57.797042 21123 net.cpp:100] Creating Layer score_fr
I1219 17:28:57.797052 21123 net.cpp:434] score_fr <- fc7
I1219 17:28:57.797067 21123 net.cpp:408] score_fr -> score_fr
I1219 17:28:57.804168 21123 net.cpp:150] Setting up score_fr
I1219 17:28:57.804186 21123 net.cpp:157] Top shape: 1 21 16 11 (3696)
I1219 17:28:57.804194 21123 net.cpp:165] Memory required for data: 866238208
I1219 17:28:57.804209 21123 layer_factory.hpp:77] Creating layer upscore
I1219 17:28:57.804230 21123 net.cpp:100] Creating Layer upscore
I1219 17:28:57.804240 21123 net.cpp:434] upscore <- score_fr
I1219 17:28:57.804249 21123 net.cpp:408] upscore -> upscore
I1219 17:28:57.808984 21123 net.cpp:150] Setting up upscore
I1219 17:28:57.809008 21123 net.cpp:157] Top shape: 1 21 544 384 (4386816)
I1219 17:28:57.809012 21123 net.cpp:165] Memory required for data: 883785472
I1219 17:28:57.809033 21123 layer_factory.hpp:77] Creating layer score
I1219 17:28:57.809048 21123 net.cpp:100] Creating Layer score
I1219 17:28:57.809053 21123 net.cpp:434] score <- upscore
I1219 17:28:57.809061 21123 net.cpp:434] score <- data_data_0_split_1
I1219 17:28:57.809067 21123 net.cpp:408] score -> score
I1219 17:28:57.809113 21123 net.cpp:150] Setting up score
I1219 17:28:57.809124 21123 net.cpp:157] Top shape: 1 21 500 330 (3465000)
I1219 17:28:57.809128 21123 net.cpp:165] Memory required for data: 897645472
I1219 17:28:57.809134 21123 layer_factory.hpp:77] Creating layer loss
I1219 17:28:57.809150 21123 net.cpp:100] Creating Layer loss
I1219 17:28:57.809154 21123 net.cpp:434] loss <- score
I1219 17:28:57.809162 21123 net.cpp:434] loss <- label
I1219 17:28:57.809170 21123 net.cpp:408] loss -> loss
I1219 17:28:57.809190 21123 layer_factory.hpp:77] Creating layer loss
…
I1219 17:28:57.819530 21123 net.cpp:283] Network initialization done.
I1219 17:28:57.820457 21123 solver.cpp:181] Creating test net (#0) specified by test_net file: val.prototxt
I1219 17:28:57.820778 21123 net.cpp:58] Initializing net from parameters: 
state {
  phase: TEST
}
layer {
  name: "data"
  type: "Python"
  top: "data"
  top: "label"
  python_param {
    module: "voc_layers"
    layer: "VOCSegDataLayer"
    param_str: "{\'voc_dir\': \'../data/pascal/VOC2012\', \'seed\': 1337, \'split\': \'seg11valid\', \'mean\': (104.00699, 116.66877, 122.67892)}"
  }
}
layer {
  name: "conv1_1"
  type: "Convolution"
  bottom: "data"
  top: "conv1_1"
  param {
    lr_mult: 1
    decay_mult: 1
  }
  param {
    lr_mult: 2
    decay_mult: 0
  }
  convolution_param {
    num_output: 64
    pad: 100
    kernel_size: 3
    stride: 1
  }
}
layer {
  name: "relu1_1"
  type: "ReLU"
  bottom: "conv1_1"
  top: "conv1_1"
}
layer {
  name: "conv1_2"
  type: "Convolution"
  bottom: "conv1_1"
  top: "conv1_2"
  param {
    lr_mult: 1
    decay_mult: 1
  }
  param {
    lr_mult: 2
    decay_mult: 0
  }
  convolution_param {
    num_output: 64
    pad: 1
    kernel_size: 3
    stride: 1
  }
}
layer {
  name: "relu1_2"
  type: "ReLU"
  bottom: "conv1_2"
  top: "conv1_2"
}
layer {
  name: "pool1"
  type: "Pooling"
  bottom: "conv1_2"
  top: "pool1"
  pooling_param {
    pool: MAX
    kernel_size: 2
    stride: 2
  }
}
layer {
  name: "conv2_1"
  type: "Convolution"
  bottom: "pool1"
  top: "conv2_1"
  param {
    lr_mult: 1
    decay_mult: 1
  }
  param {
    lr_mult: 2
    decay_mult: 0
  }
  convolution_param {
    num_output: 128
    pad: 1
    kernel_size: 3
    stride: 1
  }
}
layer {
  name: "relu2_1"
  type: "ReLU"
  bottom: "conv2_1"
  top: "conv2_1"
}
layer {
  name: "conv2_2"
  type: "Convolution"
  bottom: "conv2_1"
  top: "conv2_2"
  param {
    lr_mult: 1
    decay_mult: 1
  }
  param {
    lr_mult: 2
    decay_mult: 0
  }
  convolution_param {
    num_output: 128
    pad: 1
    kernel_size: 3
    stride: 1
  }
}
layer {
  name: "relu2_2"
  type: "ReLU"
  bottom: "conv2_2"
  top: "conv2_2"
}
layer {
  name: "pool2"
  type: "Pooling"
  bottom: "conv2_2"
  top: "pool2"
  pooling_param {
    pool: MAX
    kernel_size: 2
    stride: 2
  }
}
layer {
  name: "conv3_1"
  type: "Convolution"
  bottom: "pool2"
  top: "conv3_1"
  param {
    lr_mult: 1
    decay_mult: 1
  }
  param {
    lr_mult: 2
    decay_mult: 0
  }
  convolution_param {
    num_output: 256
    pad: 1
    kernel_size: 3
    stride: 1
  }
}
layer {
  name: "relu3_1"
  type: "ReLU"
  bottom: "conv3_1"
  top: "conv3_1"
}
layer {
  name: "conv3_2"
  type: "Convolution"
  bottom: "conv3_1"
  top: "conv3_2"
  param {
    lr_mult: 1
    decay_mult: 1
  }
  param {
    lr_mult: 2
    decay_mult: 0
  }
  convolution_param {
    num_output: 256
    pad: 1
    kernel_size: 3
    stride: 1
  }
}
layer {
  name: "relu3_2"
  type: "ReLU"
  bottom: "conv3_2"
  top: "conv3_2"
}
layer {
  name: "conv3_3"
  type: "Convolution"
  bottom: "conv3_2"
  top: "conv3_3"
  param {
    lr_mult: 1
    decay_mult: 1
  }
  param {
    lr_mult: 2
    decay_mult: 0
  }
  convolution_param {
    num_output: 256
    pad: 1
    kernel_size: 3
    stride: 1
  }
}
layer {
  name: "relu3_3"
  type: "ReLU"
  bottom: "conv3_3"
  top: "conv3_3"
}
layer {
  name: "pool3"
  type: "Pooling"
  bottom: "conv3_3"
  top: "pool3"
  pooling_param {
    pool: MAX
    kernel_size: 2
    stride: 2
  }
}
layer {
  name: "conv4_1"
  type: "Convolution"
  bottom: "pool3"
  top: "conv4_1"
  param {
    lr_mult: 1
    decay_mult: 1
  }
  param {
    lr_mult: 2
    decay_mult: 0
  }
  convolution_param {
    num_output: 512
    pad: 1
    kernel_size: 3
    stride: 1
  }
}
layer {
  name: "relu4_1"
  type: "ReLU"
  bottom: "conv4_1"
  top: "conv4_1"
}
layer {
  name: "conv4_2"
  type: "Convolution"
  bottom: "conv4_1"
  top: "conv4_2"
  param {
    lr_mult: 1
    decay_mult: 1
  }
  param {
    lr_mult: 2
    decay_mult: 0
  }
  convolution_param {
    num_output: 512
    pad: 1
    kernel_size: 3
    stride: 1
  }
}
layer {
  name: "relu4_2"
  type: "ReLU"
  bottom: "conv4_2"
  top: "conv4_2"
}
layer {
  name: "conv4_3"
  type: "Convolution"
  bottom: "conv4_2"
  top: "conv4_3"
  param {
    lr_mult: 1
    decay_mult: 1
  }
  param {
    lr_mult: 2
    decay_mult: 0
  }
  convolution_param {
    num_output: 512
    pad: 1
    kernel_size: 3
    stride: 1
  }
}
layer {
  name: "relu4_3"
  type: "ReLU"
  bottom: "conv4_3"
  top: "conv4_3"
}
layer {
  name: "pool4"
  type: "Pooling"
  bottom: "conv4_3"
  top: "pool4"
  pooling_param {
    pool: MAX
    kernel_size: 2
    stride: 2
  }
}
layer {
  name: "conv5_1"
  type: "Convolution"
  bottom: "pool4"
  top: "conv5_1"
  param {
    lr_mult: 1
    decay_mult: 1
  }
  param {
    lr_mult: 2
    decay_mult: 0
  }
  convolution_param {
    num_output: 512
    pad: 1
    kernel_size: 3
    stride: 1
  }
}
layer {
  name: "relu5_1"
  type: "ReLU"
  bottom: "conv5_1"
  top: "conv5_1"
}
layer {
  name: "conv5_2"
  type: "Convolution"
  bottom: "conv5_1"
  top: "conv5_2"
  param {
    lr_mult: 1
    decay_mult: 1
  }
  param {
    lr_mult: 2
    decay_mult: 0
  }
  convolution_param {
    num_output: 512
    pad: 1
    kernel_size: 3
    stride: 1
  }
}
layer {
  name: "relu5_2"
  type: "ReLU"
  bottom: "conv5_2"
  top: "conv5_2"
}
layer {
  name: "conv5_3"
  type: "Convolution"
  bottom: "conv5_2"
  top: "conv5_3"
  param {
    lr_mult: 1
    decay_mult: 1
  }
  param {
    lr_mult: 2
    decay_mult: 0
  }
  convolution_param {
    num_output: 512
    pad: 1
    kernel_size: 3
    stride: 1
  }
}
layer {
  name: "relu5_3"
  type: "ReLU"
  bottom: "conv5_3"
  top: "conv5_3"
}
layer {
  name: "pool5"
  type: "Pooling"
  bottom: "conv5_3"
  top: "pool5"
  pooling_param {
    pool: MAX
    kernel_size: 2
    stride: 2
  }
}
layer {
  name: "fc6"
  type: "Convolution"
  bottom: "pool5"
  top: "fc6"
  param {
    lr_mult: 1
    decay_mult: 1
  }
  param {
    lr_mult: 2
    decay_mult: 0
  }
  convolution_param {
    num_output: 4096
    pad: 0
    kernel_size: 7
    stride: 1
  }
}
layer {
  name: "relu6"
  type: "ReLU"
  bottom: "fc6"
  top: "fc6"
}
layer {
  name: "drop6"
  type: "Dropout"
  bottom: "fc6"
  top: "fc6"
  dropout_param {
    dropout_ratio: 0.5
  }
}
layer {
  name: "fc7"
  type: "Convolution"
  bottom: "fc6"
  top: "fc7"
  param {
    lr_mult: 1
    decay_mult: 1
  }
  param {
    lr_mult: 2
    decay_mult: 0
  }
  convolution_param {
    num_output: 4096
    pad: 0
    kernel_size: 1
    stride: 1
  }
}
layer {
  name: "relu7"
  type: "ReLU"
  bottom: "fc7"
  top: "fc7"
}
layer {
  name: "drop7"
  type: "Dropout"
  bottom: "fc7"
  top: "fc7"
  dropout_param {
    dropout_ratio: 0.5
  }
}
layer {
  name: "score_fr"
  type: "Convolution"
  bottom: "fc7"
  top: "score_fr"
  param {
    lr_mult: 1
    decay_mult: 1
  }
  param {
    lr_mult: 2
    decay_mult: 0
  }
  convolution_param {
    num_output: 21
    pad: 0
    kernel_size: 1
  }
}
layer {
  name: "upscore"
  type: "Deconvolution"
  bottom: "score_fr"
  top: "upscore"
  param {
    lr_mult: 0
  }
  convolution_param {
    num_output: 21
    bias_term: false
    kernel_size: 64
    stride: 32
  }
}
layer {
  name: "score"
  type: "Crop"
  bottom: "upscore"
  bottom: "data"
  top: "score"
  crop_param {
    axis: 2
    offset: 19
  }
}
layer {
  name: "loss"
  type: "SoftmaxWithLoss"
  bottom: "score"
  bottom: "label"
  top: "loss"
  loss_param {
    ignore_label: 255
    normalize: false
  }
}
I1219 17:28:57.820940 21123 layer_factory.hpp:77] Creating layer data
I1219 17:28:57.821024 21123 net.cpp:100] Creating Layer data
I1219 17:28:57.821036 21123 net.cpp:408] data -> data
I1219 17:28:57.821048 21123 net.cpp:408] data -> label
I1219 17:28:57.834650 21123 net.cpp:150] Setting up data
I1219 17:28:57.834671 21123 net.cpp:157] Top shape: 1 3 366 500 (549000)
I1219 17:28:57.834677 21123 net.cpp:157] Top shape: 1 1 366 500 (183000)
I1219 17:28:57.834681 21123 net.cpp:165] Memory required for data: 2928000
I1219 17:28:57.834691 21123 layer_factory.hpp:77] Creating layer data_data_0_split
I1219 17:28:57.834700 21123 net.cpp:100] Creating Layer data_data_0_split
I1219 17:28:57.834704 21123 net.cpp:434] data_data_0_split <- data
I1219 17:28:57.834712 21123 net.cpp:408] data_data_0_split -> data_data_0_split_0
I1219 17:28:57.834722 21123 net.cpp:408] data_data_0_split -> data_data_0_split_1
I1219 17:28:57.834780 21123 net.cpp:150] Setting up data_data_0_split
I1219 17:28:57.834790 21123 net.cpp:157] Top shape: 1 3 366 500 (549000)
I1219 17:28:57.834795 21123 net.cpp:157] Top shape: 1 3 366 500 (549000)
I1219 17:28:57.834800 21123 net.cpp:165] Memory required for data: 7320000
I1219 17:28:57.834803 21123 layer_factory.hpp:77] Creating layer conv1_1
I1219 17:28:57.834815 21123 net.cpp:100] Creating Layer conv1_1
I1219 17:28:57.834820 21123 net.cpp:434] conv1_1 <- data_data_0_split_0
I1219 17:28:57.834826 21123 net.cpp:408] conv1_1 -> conv1_1
I1219 17:28:57.837694 21123 net.cpp:150] Setting up conv1_1
I1219 17:28:57.837723 21123 net.cpp:157] Top shape: 1 64 564 698 (25195008)
I1219 17:28:57.837728 21123 net.cpp:165] Memory required for data: 108100032
I1219 17:28:57.837749 21123 layer_factory.hpp:77] Creating layer relu1_1
I1219 17:28:57.837761 21123 net.cpp:100] Creating Layer relu1_1
I1219 17:28:57.837766 21123 net.cpp:434] relu1_1 <- conv1_1
I1219 17:28:57.837774 21123 net.cpp:395] relu1_1 -> conv1_1 (in-place)
I1219 17:28:57.838162 21123 net.cpp:150] Setting up relu1_1
I1219 17:28:57.838179 21123 net.cpp:157] Top shape: 1 64 564 698 (25195008)
I1219 17:28:57.838184 21123 net.cpp:165] Memory required for data: 208880064
I1219 17:28:57.838189 21123 layer_factory.hpp:77] Creating layer conv1_2
I1219 17:28:57.838202 21123 net.cpp:100] Creating Layer conv1_2
I1219 17:28:57.838207 21123 net.cpp:434] conv1_2 <- conv1_1
I1219 17:28:57.838214 21123 net.cpp:408] conv1_2 -> conv1_2
I1219 17:28:57.841053 21123 net.cpp:150] Setting up conv1_2
I1219 17:28:57.841079 21123 net.cpp:157] Top shape: 1 64 564 698 (25195008)
I1219 17:28:57.841084 21123 net.cpp:165] Memory required for data: 309660096
I1219 17:28:57.841102 21123 layer_factory.hpp:77] Creating layer relu1_2
I1219 17:28:57.841114 21123 net.cpp:100] Creating Layer relu1_2
I1219 17:28:57.841120 21123 net.cpp:434] relu1_2 <- conv1_2
I1219 17:28:57.841126 21123 net.cpp:395] relu1_2 -> conv1_2 (in-place)
I1219 17:28:57.841380 21123 net.cpp:150] Setting up relu1_2
I1219 17:28:57.841395 21123 net.cpp:157] Top shape: 1 64 564 698 (25195008)
I1219 17:28:57.841400 21123 net.cpp:165] Memory required for data: 410440128
I1219 17:28:57.841405 21123 layer_factory.hpp:77] Creating layer pool1
I1219 17:28:57.841415 21123 net.cpp:100] Creating Layer pool1
I1219 17:28:57.841420 21123 net.cpp:434] pool1 <- conv1_2
I1219 17:28:57.841428 21123 net.cpp:408] pool1 -> pool1
I1219 17:28:57.841503 21123 net.cpp:150] Setting up pool1
I1219 17:28:57.841516 21123 net.cpp:157] Top shape: 1 64 282 349 (6298752)
I1219 17:28:57.841521 21123 net.cpp:165] Memory required for data: 435635136
I1219 17:28:57.841526 21123 layer_factory.hpp:77] Creating layer conv2_1
I1219 17:28:57.841536 21123 net.cpp:100] Creating Layer conv2_1
I1219 17:28:57.841541 21123 net.cpp:434] conv2_1 <- pool1
I1219 17:28:57.841547 21123 net.cpp:408] conv2_1 -> conv2_1
I1219 17:28:57.843786 21123 net.cpp:150] Setting up conv2_1
I1219 17:28:57.843806 21123 net.cpp:157] Top shape: 1 128 282 349 (12597504)
I1219 17:28:57.843811 21123 net.cpp:165] Memory required for data: 486025152
I1219 17:28:57.843827 21123 layer_factory.hpp:77] Creating layer relu2_1
I1219 17:28:57.843838 21123 net.cpp:100] Creating Layer relu2_1
I1219 17:28:57.843843 21123 net.cpp:434] relu2_1 <- conv2_1
I1219 17:28:57.843850 21123 net.cpp:395] relu2_1 -> conv2_1 (in-place)
I1219 17:28:57.844244 21123 net.cpp:150] Setting up relu2_1
I1219 17:28:57.844261 21123 net.cpp:157] Top shape: 1 128 282 349 (12597504)
I1219 17:28:57.844266 21123 net.cpp:165] Memory required for data: 536415168
I1219 17:28:57.844271 21123 layer_factory.hpp:77] Creating layer conv2_2
I1219 17:28:57.844281 21123 net.cpp:100] Creating Layer conv2_2
I1219 17:28:57.844286 21123 net.cpp:434] conv2_2 <- conv2_1
I1219 17:28:57.844293 21123 net.cpp:408] conv2_2 -> conv2_2
I1219 17:28:57.846431 21123 net.cpp:150] Setting up conv2_2
I1219 17:28:57.846452 21123 net.cpp:157] Top shape: 1 128 282 349 (12597504)
I1219 17:28:57.846457 21123 net.cpp:165] Memory required for data: 586805184
I1219 17:28:57.846470 21123 layer_factory.hpp:77] Creating layer relu2_2
I1219 17:28:57.846479 21123 net.cpp:100] Creating Layer relu2_2
I1219 17:28:57.846484 21123 net.cpp:434] relu2_2 <- conv2_2
I1219 17:28:57.846492 21123 net.cpp:395] relu2_2 -> conv2_2 (in-place)
I1219 17:28:57.846864 21123 net.cpp:150] Setting up relu2_2
I1219 17:28:57.846881 21123 net.cpp:157] Top shape: 1 128 282 349 (12597504)
I1219 17:28:57.846885 21123 net.cpp:165] Memory required for data: 637195200
I1219 17:28:57.846890 21123 layer_factory.hpp:77] Creating layer pool2
I1219 17:28:57.846900 21123 net.cpp:100] Creating Layer pool2
I1219 17:28:57.846905 21123 net.cpp:434] pool2 <- conv2_2
I1219 17:28:57.846912 21123 net.cpp:408] pool2 -> pool2
I1219 17:28:57.846982 21123 net.cpp:150] Setting up pool2
I1219 17:28:57.846992 21123 net.cpp:157] Top shape: 1 128 141 175 (3158400)
I1219 17:28:57.846995 21123 net.cpp:165] Memory required for data: 649828800
I1219 17:28:57.846999 21123 layer_factory.hpp:77] Creating layer conv3_1
I1219 17:28:57.847009 21123 net.cpp:100] Creating Layer conv3_1
I1219 17:28:57.847014 21123 net.cpp:434] conv3_1 <- pool2
I1219 17:28:57.847021 21123 net.cpp:408] conv3_1 -> conv3_1
I1219 17:28:57.849483 21123 net.cpp:150] Setting up conv3_1
I1219 17:28:57.849501 21123 net.cpp:157] Top shape: 1 256 141 175 (6316800)
I1219 17:28:57.849505 21123 net.cpp:165] Memory required for data: 675096000
I1219 17:28:57.849524 21123 layer_factory.hpp:77] Creating layer relu3_1
I1219 17:28:57.849531 21123 net.cpp:100] Creating Layer relu3_1
I1219 17:28:57.849536 21123 net.cpp:434] relu3_1 <- conv3_1
I1219 17:28:57.849544 21123 net.cpp:395] relu3_1 -> conv3_1 (in-place)
I1219 17:28:57.849772 21123 net.cpp:150] Setting up relu3_1
I1219 17:28:57.849788 21123 net.cpp:157] Top shape: 1 256 141 175 (6316800)
I1219 17:28:57.849792 21123 net.cpp:165] Memory required for data: 700363200
I1219 17:28:57.849797 21123 layer_factory.hpp:77] Creating layer conv3_2
I1219 17:28:57.849807 21123 net.cpp:100] Creating Layer conv3_2
I1219 17:28:57.849812 21123 net.cpp:434] conv3_2 <- conv3_1
I1219 17:28:57.849819 21123 net.cpp:408] conv3_2 -> conv3_2
I1219 17:28:57.852974 21123 net.cpp:150] Setting up conv3_2
I1219 17:28:57.852995 21123 net.cpp:157] Top shape: 1 256 141 175 (6316800)
I1219 17:28:57.853000 21123 net.cpp:165] Memory required for data: 725630400
I1219 17:28:57.853014 21123 layer_factory.hpp:77] Creating layer relu3_2
I1219 17:28:57.853024 21123 net.cpp:100] Creating Layer relu3_2
I1219 17:28:57.853029 21123 net.cpp:434] relu3_2 <- conv3_2
I1219 17:28:57.853036 21123 net.cpp:395] relu3_2 -> conv3_2 (in-place)
I1219 17:28:57.853426 21123 net.cpp:150] Setting up relu3_2
I1219 17:28:57.853443 21123 net.cpp:157] Top shape: 1 256 141 175 (6316800)
I1219 17:28:57.853448 21123 net.cpp:165] Memory required for data: 750897600
I1219 17:28:57.853453 21123 layer_factory.hpp:77] Creating layer conv3_3
I1219 17:28:57.853467 21123 net.cpp:100] Creating Layer conv3_3
I1219 17:28:57.853472 21123 net.cpp:434] conv3_3 <- conv3_2
I1219 17:28:57.853479 21123 net.cpp:408] conv3_3 -> conv3_3
I1219 17:28:57.856564 21123 net.cpp:150] Setting up conv3_3
I1219 17:28:57.856586 21123 net.cpp:157] Top shape: 1 256 141 175 (6316800)
I1219 17:28:57.856591 21123 net.cpp:165] Memory required for data: 776164800
I1219 17:28:57.856601 21123 layer_factory.hpp:77] Creating layer relu3_3
I1219 17:28:57.856611 21123 net.cpp:100] Creating Layer relu3_3
I1219 17:28:57.856616 21123 net.cpp:434] relu3_3 <- conv3_3
I1219 17:28:57.856623 21123 net.cpp:395] relu3_3 -> conv3_3 (in-place)
I1219 17:28:57.856997 21123 net.cpp:150] Setting up relu3_3
I1219 17:28:57.857013 21123 net.cpp:157] Top shape: 1 256 141 175 (6316800)
I1219 17:28:57.857018 21123 net.cpp:165] Memory required for data: 801432000
I1219 17:28:57.857023 21123 layer_factory.hpp:77] Creating layer pool3
I1219 17:28:57.857033 21123 net.cpp:100] Creating Layer pool3
I1219 17:28:57.857036 21123 net.cpp:434] pool3 <- conv3_3
I1219 17:28:57.857044 21123 net.cpp:408] pool3 -> pool3
I1219 17:28:57.857115 21123 net.cpp:150] Setting up pool3
I1219 17:28:57.857127 21123 net.cpp:157] Top shape: 1 256 71 88 (1599488)
I1219 17:28:57.857131 21123 net.cpp:165] Memory required for data: 807829952
I1219 17:28:57.857136 21123 layer_factory.hpp:77] Creating layer conv4_1
I1219 17:28:57.857146 21123 net.cpp:100] Creating Layer conv4_1
I1219 17:28:57.857151 21123 net.cpp:434] conv4_1 <- pool3
I1219 17:28:57.857157 21123 net.cpp:408] conv4_1 -> conv4_1
I1219 17:28:57.862494 21123 net.cpp:150] Setting up conv4_1
I1219 17:28:57.862526 21123 net.cpp:157] Top shape: 1 512 71 88 (3198976)
I1219 17:28:57.862531 21123 net.cpp:165] Memory required for data: 820625856
I1219 17:28:57.862546 21123 layer_factory.hpp:77] Creating layer relu4_1
I1219 17:28:57.862558 21123 net.cpp:100] Creating Layer relu4_1
I1219 17:28:57.862565 21123 net.cpp:434] relu4_1 <- conv4_1
I1219 17:28:57.862572 21123 net.cpp:395] relu4_1 -> conv4_1 (in-place)
I1219 17:28:57.862804 21123 net.cpp:150] Setting up relu4_1
I1219 17:28:57.862820 21123 net.cpp:157] Top shape: 1 512 71 88 (3198976)
I1219 17:28:57.862824 21123 net.cpp:165] Memory required for data: 833421760
I1219 17:28:57.862829 21123 layer_factory.hpp:77] Creating layer conv4_2
I1219 17:28:57.862841 21123 net.cpp:100] Creating Layer conv4_2
I1219 17:28:57.862846 21123 net.cpp:434] conv4_2 <- conv4_1
I1219 17:28:57.862854 21123 net.cpp:408] conv4_2 -> conv4_2
I1219 17:28:57.873847 21123 net.cpp:150] Setting up conv4_2
I1219 17:28:57.873872 21123 net.cpp:157] Top shape: 1 512 71 88 (3198976)
I1219 17:28:57.873877 21123 net.cpp:165] Memory required for data: 846217664
I1219 17:28:57.873898 21123 layer_factory.hpp:77] Creating layer relu4_2
I1219 17:28:57.873908 21123 net.cpp:100] Creating Layer relu4_2
I1219 17:28:57.873914 21123 net.cpp:434] relu4_2 <- conv4_2
I1219 17:28:57.873922 21123 net.cpp:395] relu4_2 -> conv4_2 (in-place)
I1219 17:28:57.874848 21123 net.cpp:150] Setting up relu4_2
I1219 17:28:57.874866 21123 net.cpp:157] Top shape: 1 512 71 88 (3198976)
I1219 17:28:57.874871 21123 net.cpp:165] Memory required for data: 859013568
I1219 17:28:57.874876 21123 layer_factory.hpp:77] Creating layer conv4_3
I1219 17:28:57.874888 21123 net.cpp:100] Creating Layer conv4_3
I1219 17:28:57.874893 21123 net.cpp:434] conv4_3 <- conv4_2
I1219 17:28:57.874900 21123 net.cpp:408] conv4_3 -> conv4_3
I1219 17:28:57.884892 21123 net.cpp:150] Setting up conv4_3
I1219 17:28:57.884917 21123 net.cpp:157] Top shape: 1 512 71 88 (3198976)
I1219 17:28:57.884925 21123 net.cpp:165] Memory required for data: 871809472
I1219 17:28:57.884935 21123 layer_factory.hpp:77] Creating layer relu4_3
I1219 17:28:57.884944 21123 net.cpp:100] Creating Layer relu4_3
I1219 17:28:57.884949 21123 net.cpp:434] relu4_3 <- conv4_3
I1219 17:28:57.884956 21123 net.cpp:395] relu4_3 -> conv4_3 (in-place)
I1219 17:28:57.885869 21123 net.cpp:150] Setting up relu4_3
I1219 17:28:57.885886 21123 net.cpp:157] Top shape: 1 512 71 88 (3198976)
I1219 17:28:57.885890 21123 net.cpp:165] Memory required for data: 884605376
I1219 17:28:57.885895 21123 layer_factory.hpp:77] Creating layer pool4
I1219 17:28:57.885905 21123 net.cpp:100] Creating Layer pool4
I1219 17:28:57.885910 21123 net.cpp:434] pool4 <- conv4_3
I1219 17:28:57.885916 21123 net.cpp:408] pool4 -> pool4
I1219 17:28:57.885993 21123 net.cpp:150] Setting up pool4
I1219 17:28:57.886005 21123 net.cpp:157] Top shape: 1 512 36 44 (811008)
I1219 17:28:57.886009 21123 net.cpp:165] Memory required for data: 887849408
I1219 17:28:57.886014 21123 layer_factory.hpp:77] Creating layer conv5_1
I1219 17:28:57.886026 21123 net.cpp:100] Creating Layer conv5_1
I1219 17:28:57.886030 21123 net.cpp:434] conv5_1 <- pool4
I1219 17:28:57.886039 21123 net.cpp:408] conv5_1 -> conv5_1
I1219 17:28:57.897135 21123 net.cpp:150] Setting up conv5_1
I1219 17:28:57.897189 21123 net.cpp:157] Top shape: 1 512 36 44 (811008)
I1219 17:28:57.897195 21123 net.cpp:165] Memory required for data: 891093440
I1219 17:28:57.897212 21123 layer_factory.hpp:77] Creating layer relu5_1
I1219 17:28:57.897228 21123 net.cpp:100] Creating Layer relu5_1
I1219 17:28:57.897236 21123 net.cpp:434] relu5_1 <- conv5_1
I1219 17:28:57.897246 21123 net.cpp:395] relu5_1 -> conv5_1 (in-place)
I1219 17:28:57.897950 21123 net.cpp:150] Setting up relu5_1
I1219 17:28:57.897965 21123 net.cpp:157] Top shape: 1 512 36 44 (811008)
I1219 17:28:57.897969 21123 net.cpp:165] Memory required for data: 894337472
I1219 17:28:57.897974 21123 layer_factory.hpp:77] Creating layer conv5_2
I1219 17:28:57.897989 21123 net.cpp:100] Creating Layer conv5_2
I1219 17:28:57.897994 21123 net.cpp:434] conv5_2 <- conv5_1
I1219 17:28:57.898001 21123 net.cpp:408] conv5_2 -> conv5_2
I1219 17:28:57.911931 21123 net.cpp:150] Setting up conv5_2
I1219 17:28:57.912014 21123 net.cpp:157] Top shape: 1 512 36 44 (811008)
I1219 17:28:57.912024 21123 net.cpp:165] Memory required for data: 897581504
I1219 17:28:57.912039 21123 layer_factory.hpp:77] Creating layer relu5_2
I1219 17:28:57.912053 21123 net.cpp:100] Creating Layer relu5_2
I1219 17:28:57.912060 21123 net.cpp:434] relu5_2 <- conv5_2
I1219 17:28:57.912070 21123 net.cpp:395] relu5_2 -> conv5_2 (in-place)
I1219 17:28:57.913066 21123 net.cpp:150] Setting up relu5_2
I1219 17:28:57.913082 21123 net.cpp:157] Top shape: 1 512 36 44 (811008)
I1219 17:28:57.913086 21123 net.cpp:165] Memory required for data: 900825536
I1219 17:28:57.913091 21123 layer_factory.hpp:77] Creating layer conv5_3
I1219 17:28:57.913106 21123 net.cpp:100] Creating Layer conv5_3
I1219 17:28:57.913112 21123 net.cpp:434] conv5_3 <- conv5_2
I1219 17:28:57.913120 21123 net.cpp:408] conv5_3 -> conv5_3
I1219 17:28:57.923290 21123 net.cpp:150] Setting up conv5_3
I1219 17:28:57.923322 21123 net.cpp:157] Top shape: 1 512 36 44 (811008)
I1219 17:28:57.923331 21123 net.cpp:165] Memory required for data: 904069568
I1219 17:28:57.923342 21123 layer_factory.hpp:77] Creating layer relu5_3
I1219 17:28:57.923352 21123 net.cpp:100] Creating Layer relu5_3
I1219 17:28:57.923357 21123 net.cpp:434] relu5_3 <- conv5_3
I1219 17:28:57.923368 21123 net.cpp:395] relu5_3 -> conv5_3 (in-place)
I1219 17:28:57.924316 21123 net.cpp:150] Setting up relu5_3
I1219 17:28:57.924332 21123 net.cpp:157] Top shape: 1 512 36 44 (811008)
I1219 17:28:57.924336 21123 net.cpp:165] Memory required for data: 907313600
I1219 17:28:57.924341 21123 layer_factory.hpp:77] Creating layer pool5
I1219 17:28:57.924358 21123 net.cpp:100] Creating Layer pool5
I1219 17:28:57.924363 21123 net.cpp:434] pool5 <- conv5_3
I1219 17:28:57.924373 21123 net.cpp:408] pool5 -> pool5
I1219 17:28:57.924450 21123 net.cpp:150] Setting up pool5
I1219 17:28:57.924463 21123 net.cpp:157] Top shape: 1 512 18 22 (202752)
I1219 17:28:57.924468 21123 net.cpp:165] Memory required for data: 908124608
I1219 17:28:57.924473 21123 layer_factory.hpp:77] Creating layer fc6
I1219 17:28:57.924484 21123 net.cpp:100] Creating Layer fc6
I1219 17:28:57.924489 21123 net.cpp:434] fc6 <- pool5
I1219 17:28:57.924499 21123 net.cpp:408] fc6 -> fc6
I1219 17:28:58.244688 21123 net.cpp:150] Setting up fc6
I1219 17:28:58.244729 21123 net.cpp:157] Top shape: 1 4096 12 16 (786432)
I1219 17:28:58.244737 21123 net.cpp:165] Memory required for data: 911270336
I1219 17:28:58.244750 21123 layer_factory.hpp:77] Creating layer relu6
I1219 17:28:58.244763 21123 net.cpp:100] Creating Layer relu6
I1219 17:28:58.244770 21123 net.cpp:434] relu6 <- fc6
I1219 17:28:58.244779 21123 net.cpp:395] relu6 -> fc6 (in-place)
I1219 17:28:58.245618 21123 net.cpp:150] Setting up relu6
I1219 17:28:58.245633 21123 net.cpp:157] Top shape: 1 4096 12 16 (786432)
I1219 17:28:58.245637 21123 net.cpp:165] Memory required for data: 914416064
I1219 17:28:58.245642 21123 layer_factory.hpp:77] Creating layer drop6
I1219 17:28:58.245653 21123 net.cpp:100] Creating Layer drop6
I1219 17:28:58.245658 21123 net.cpp:434] drop6 <- fc6
I1219 17:28:58.245664 21123 net.cpp:395] drop6 -> fc6 (in-place)
I1219 17:28:58.245717 21123 net.cpp:150] Setting up drop6
I1219 17:28:58.245726 21123 net.cpp:157] Top shape: 1 4096 12 16 (786432)
I1219 17:28:58.245729 21123 net.cpp:165] Memory required for data: 917561792
I1219 17:28:58.245734 21123 layer_factory.hpp:77] Creating layer fc7
I1219 17:28:58.245748 21123 net.cpp:100] Creating Layer fc7
I1219 17:28:58.245753 21123 net.cpp:434] fc7 <- fc6
I1219 17:28:58.245760 21123 net.cpp:408] fc7 -> fc7
I1219 17:28:58.298596 21123 net.cpp:150] Setting up fc7
I1219 17:28:58.298641 21123 net.cpp:157] Top shape: 1 4096 12 16 (786432)
I1219 17:28:58.298647 21123 net.cpp:165] Memory required for data: 920707520
I1219 17:28:58.298660 21123 layer_factory.hpp:77] Creating layer relu7
I1219 17:28:58.298674 21123 net.cpp:100] Creating Layer relu7
I1219 17:28:58.298681 21123 net.cpp:434] relu7 <- fc7
I1219 17:28:58.298692 21123 net.cpp:395] relu7 -> fc7 (in-place)
I1219 17:28:58.300282 21123 net.cpp:150] Setting up relu7
I1219 17:28:58.300298 21123 net.cpp:157] Top shape: 1 4096 12 16 (786432)
I1219 17:28:58.300302 21123 net.cpp:165] Memory required for data: 923853248
I1219 17:28:58.300307 21123 layer_factory.hpp:77] Creating layer drop7
I1219 17:28:58.300320 21123 net.cpp:100] Creating Layer drop7
I1219 17:28:58.300324 21123 net.cpp:434] drop7 <- fc7
I1219 17:28:58.300333 21123 net.cpp:395] drop7 -> fc7 (in-place)
I1219 17:28:58.300386 21123 net.cpp:150] Setting up drop7
I1219 17:28:58.300403 21123 net.cpp:157] Top shape: 1 4096 12 16 (786432)
I1219 17:28:58.300408 21123 net.cpp:165] Memory required for data: 926998976
I1219 17:28:58.300412 21123 layer_factory.hpp:77] Creating layer score_fr
I1219 17:28:58.300423 21123 net.cpp:100] Creating Layer score_fr
I1219 17:28:58.300428 21123 net.cpp:434] score_fr <- fc7
I1219 17:28:58.300437 21123 net.cpp:408] score_fr -> score_fr
I1219 17:28:58.307521 21123 net.cpp:150] Setting up score_fr
I1219 17:28:58.307538 21123 net.cpp:157] Top shape: 1 21 12 16 (4032)
I1219 17:28:58.307543 21123 net.cpp:165] Memory required for data: 927015104
I1219 17:28:58.307550 21123 layer_factory.hpp:77] Creating layer upscore
I1219 17:28:58.307562 21123 net.cpp:100] Creating Layer upscore
I1219 17:28:58.307567 21123 net.cpp:434] upscore <- score_fr
I1219 17:28:58.307574 21123 net.cpp:408] upscore -> upscore
I1219 17:28:58.326180 21123 net.cpp:150] Setting up upscore
I1219 17:28:58.326225 21123 net.cpp:157] Top shape: 1 21 416 544 (4752384)
I1219 17:28:58.326230 21123 net.cpp:165] Memory required for data: 946024640
I1219 17:28:58.326252 21123 layer_factory.hpp:77] Creating layer score
I1219 17:28:58.326272 21123 net.cpp:100] Creating Layer score
I1219 17:28:58.326279 21123 net.cpp:434] score <- upscore
I1219 17:28:58.326287 21123 net.cpp:434] score <- data_data_0_split_1
I1219 17:28:58.326294 21123 net.cpp:408] score -> score
I1219 17:28:58.326350 21123 net.cpp:150] Setting up score
I1219 17:28:58.326362 21123 net.cpp:157] Top shape: 1 21 366 500 (3843000)
I1219 17:28:58.326366 21123 net.cpp:165] Memory required for data: 961396640
I1219 17:28:58.326371 21123 layer_factory.hpp:77] Creating layer loss
I1219 17:28:58.326380 21123 net.cpp:100] Creating Layer loss
I1219 17:28:58.326385 21123 net.cpp:434] loss <- score
I1219 17:28:58.326391 21123 net.cpp:434] loss <- label
I1219 17:28:58.326400 21123 net.cpp:408] loss -> loss
I1219 17:28:58.326413 21123 layer_factory.hpp:77] Creating layer loss
…
